data.pth (torch, 4970 bytes, 6 tensors)

l1.weight f4 [8, 46]
0	0x3f27e445	0.65582687
1	0xbd13de77	-0.03610083
2	0x3e8b643d	0.27224913
3	0x3e4c9f81	0.19982721
4	0x3f1dc864	0.61633897
5	0x3f1d285e	0.6138972
6	0xbe844d7f	-0.25840375
7	0x3f0fb07c	0.5612867
8	0xbefee258	-0.49782062
9	0x3df7b2f5	0.1209468
10	0x3dc00394	0.093756825
11	0x3e4764bd	0.19472022
12	0x3efb5d9a	0.4909485
13	0x3f05a1d3	0.5220005
14	0x3efb9887	0.49139807
15	0x3ece65f1	0.4031215
16	0x3ea4ea42	0.32209975
17	0x3ed5919d	0.41712657
18	0x3f255f14	0.645982
19	0x3ef1ed05	0.47251144
20	0xbd002ff3	-0.031295728
21	0x3dd69315	0.104772724
22	0xbe8ee001	-0.27905276
23	0x3efc9b6d	0.4933733
24	0x3f157964	0.5838835
25	0x3e8f0013	0.27929744
26	0xbece638f	-0.40310332
27	0x3f52d060	0.82349205
28	0x3ed5f79e	0.4179048
29	0x3f12f641	0.57407004
30	0x3f409979	0.7523418
31	0x3e9c7b62	0.30562884
32	0x3f10157e	0.56282794
33	0x3def7b12	0.11693396
34	0x3e824607	0.25444052
35	0x3eaab5e8	0.33341908
36	0x3e958708	0.29204583
37	0x3f2440f0	0.64161587
38	0xbf295c6d	-0.66156656
39	0xbe4f751d	-0.20259519
40	0x3f10ac66	0.5651306
41	0xbe361f36	-0.17785344
42	0x3f162e9c	0.5866487
43	0x3f03f6fe	0.51548755
44	0x3e944656	0.28959912
45	0x3ee45e7a	0.4460333
46	0xbea7c648	-0.32768464
47	0x3e01082e	0.12600777
48	0xbdefae14	-0.11703125
49	0x3e975093	0.2955366
50	0x3ee86695	0.45390764
51	0x3e6f8f0f	0.23394416
52	0xbe63dc26	-0.22251949
53	0xbeaf610e	-0.34253734
54	0xbe371c7f	-0.17881964
55	0x3f1d9982	0.6156236
56	0x3f029c76	0.5101999
57	0x3ef3f849	0.47650364
58	0xbeef844b	-0.4678062
59	0x3e8196e1	0.25310424
60	0xbe715f9e	-0.23571631
61	0xbea11a89	-0.31465557
62	0xbde3fbe2	-0.11132027
63	0xbe8a59b3	-0.2702156
64	0x3de9518a	0.113925055
65	0xbe836758	-0.25664783
66	0x3de4e0d8	0.11175698
67	0x3e8f01a9	0.27930954
68	0x3ebdf735	0.37102666
69	0xbec0120d	-0.37513772
70	0x3e92cdd8	0.2867267
71	0xbee5793f	-0.44819066
72	0xbe8523e2	-0.2600394
73	0x3f593155	0.848409
74	0x3f2589c0	0.64663315
75	0x3ec292a6	0.3800251
76	0x3dec1841	0.115280636
77	0xbd183bd3	-0.037166428
78	0xbe3ab798	-0.18234098
79	0x3ee34bc5	0.44393745
80	0xbefd6191	-0.494885
81	0xbf18fa35	-0.59756786
82	0x3f1f95ff	0.6233825
83	0x3d649705	0.055808086
84	0xbf1eb17d	-0.61989576
85	0x3ec983a4	0.39358246
86	0xbddbba3f	-0.10728883
87	0x3ec57908	0.38568902
88	0x3ef80458	0.48440814
89	0xbe8626bd	-0.2620143
90	0x3e85e4a8	0.26151013
91	0xbdec742b	-0.11545595
92	0x3ed12113	0.40845546
93	0x3eeefcbf	0.46677205
94	0x3e8b58c0	0.27216148
95	0x3e736fd7	0.23773132
96	0x3d33613b	0.043793898
97	0xbe2fbaf8	-0.17161167
98	0x3e5eb633	0.21749191
99	0xbe0ab670	-0.13546157
100	0x3e2fb89b	0.17160265
101	0xbefe9c57	-0.49728653
102	0xbea67876	-0.3251378
103	0xbe3d9539	-0.18513955
104	0x3ea57d85	0.32322326
105	0xbcf5f70d	-0.03002503
106	0xbe150078	-0.1455096
107	0xbe467365	-0.19379957
108	0x3e22a508	0.15883267
109	0xbcd6490d	-0.02615788
110	0xbd9261df	-0.07147574
111	0xbdcc02b2	-0.099614516
112	0x3ecf42f5	0.40480772
113	0x3f090953	0.5352985
114	0x3f2cd3c2	0.67510617
115	0xbd18761f	-0.037222024
116	0xbe0301f0	-0.12793708
117	0x3ea2c7c5	0.31793037
118	0x3ecb847a	0.3974951
119	0xbe8204f7	-0.25394413
120	0xbe3a22ac	-0.18177289
121	0xbe2cc5dd	-0.16872354
122	0xbe603f2b	-0.21899097
123	0xbe775d20	-0.24156618
124	0xbcf9a434	-0.030473806
125	0xbe3d0f1a	-0.18462792
126	0x3de6baa1	0.112660654
127	0x3eb3cef4	0.3511883
128	0xbe300d9a	-0.17192689
129	0xbd8b18e2	-0.067918554
130	0x3f05eb69	0.5231233
131	0x3f063c56	0.52435815
132	0xbed4764a	-0.41496497
133	0x3ef2881a	0.47369462
134	0xbe513897	-0.20431744
135	0x3e272941	0.16324331
136	0xbe05b77f	-0.1305828
137	0xbe710070	-0.23535323
138	0x3ea2a264	0.3176452
139	0xbd58fe00	-0.05297661
140	0xbe63fd62	-0.22264627
141	0xbe5fe735	-0.21865542
142	0xbdcfd953	-0.10148873
143	0x3dd9db6d	0.10637555
144	0x3f07123e	0.5276221
145	0x3ea52ae9	0.322593
146	0x3eecf554	0.4628092
147	0xbf0bd99a	-0.5462891
148	0xbe903cff	-0.28171536
149	0xbed5f6da	-0.41789895
150	0x3ed089a3	0.40730008
151	0xbe0bd3a4	-0.13654953
152	0x3ee60ff2	0.4493404
153	0x3e5b6dec	0.2142865
154	0xbe3fcadc	-0.18729728
155	0x3ecd98a0	0.40155506
156	0x3d375560	0.044759154
157	0x3e500b52	0.20316818
158	0xbe47f2fe	-0.19526288
159	0xbeac8540	-0.33695412
160	0xbe968810	-0.29400682
161	0x3cbfbd1e	0.023405608
162	0xbe12d8a4	-0.14340454
163	0x3f136aef	0.5758504
164	0x3e84eb8f	0.25960967
165	0xbf328ace	-0.6974305
166	0xbeb4ac25	-0.35287586
167	0xbe3769cd	-0.17911454
168	0x3e52ebaf	0.20597719
169	0x3e2f4398	0.17115629
170	0x3f2d4825	0.6768821
171	0xbec60df7	-0.3868253
172	0x3eea1c84	0.4572488
173	0x3f21be7f	0.631813
174	0xbe81118f	-0.2520871
175	0x3d3f3deb	0.04668991
176	0x3f25d670	0.6478033
177	0xbe2a8bdd	-0.16654916
178	0x3dfe25e0	0.12409568
179	0xbf2fb43f	-0.6863441
180	0x3c694599	0.014237785
181	0x3eb75465	0.35806575
182	0x3ed36d96	0.41294545
183	0x3e5db6cd	0.21651764
184	0xbcb4ba4a	-0.022061486
185	0x3e2edab5	0.17075618
186	0x3df6d22c	0.12051806
187	0x3db9e895	0.090775646
188	0x3dcd7988	0.10032946
189	0xbe3de54d	-0.18544503
190	0x3f0febb4	0.5621903
191	0xbecad479	-0.3961523
192	0x3ecfab72	0.4056049
193	0x3e8f58d2	0.27997452
194	0x3e4f195a	0.20224515
195	0x3ec88cef	0.39170024
196	0xbe6d8241	-0.23194219
197	0xbe65fb9e	-0.22459266
198	0xbe050eae	-0.12993881
199	0xbeb6cfec	-0.35705507
200	0x3df2a7e6	0.1184843
201	0xbe4ac604	-0.198021
202	0xbe21c4df	-0.15797757
203	0xbe976415	-0.29568544
204	0x3e0e4b4f	0.13895915
205	0x3ea58006	0.32324237
206	0x3eb5c8b8	0.355047
207	0xbe2a4e11	-0.16631342
208	0xbe5af269	-0.21381535
209	0xbe63fe4a	-0.22264972
210	0x3f002641	0.5005837
211	0xbeb499b0	-0.35273504
212	0x3ec60037	0.3867204
213	0xbe40efea	-0.1884152
214	0xbe170651	-0.14748503
215	0xbe5b8fa2	-0.2144151
216	0xbec0ea78	-0.37678885
217	0x3ead0b64	0.33797753
218	0xbe051521	-0.12996341
219	0xbdf8db2c	-0.12151179
220	0x3e74495c	0.2385611
221	0xbe485232	-0.19562605
222	0x3f556486	0.8335651
223	0x3e3d314b	0.18475835
224	0xbd4b9187	-0.049699333
225	0x3ecc717e	0.39930338
226	0xbe2d52cf	-0.1692612
227	0xbe71d93e	-0.23618028
228	0x3e65506d	0.22393961
229	0xbe32cce6	-0.17460975
230	0x3ea8a753	0.32940158
231	0x3e59a6ad	0.21254988
232	0x3de9d88f	0.114182584
233	0x3ed54ae0	0.41658688
234	0x3cdeb84c	0.027187489
235	0x3d34e9da	0.04416833
236	0x3edc57e4	0.43035805
237	0xbe8ffc19	-0.28122023
238	0x3e943c80	0.28952408
239	0xbf0fc7ee	-0.56164443
240	0xbea241b4	-0.31690753
241	0xbe606e43	-0.21917062
242	0x3ed58388	0.41701913
243	0xbe581277	-0.21100794
244	0xbe3c06bd	-0.18361945
245	0xbe845b0c	-0.25850713
246	0x3c86cd38	0.016455278
247	0xbd7c38f6	-0.06157776
248	0xbdf8a6e7	-0.12141209
249	0xbe0bade7	-0.13640557
250	0x3ea9f9a0	0.3319826
251	0x3eef9939	0.46796587
252	0x3f11a462	0.56891453
253	0xbdc4172d	-0.09574733
254	0xbd47c575	-0.048772294
255	0x3e30cdbb	0.1726598

l1.bias f4 [8]
0	0x3f295d67	0.66158146
1	0x3f45aa00	0.77212524
2	0x3efe7304	0.49697125
3	0x3f0bd7b1	0.54625994
4	0x3f320e7d	0.6955336
5	0x3f0fc0f2	0.56153786
6	0x3f394f18	0.7238631
7	0x3f2eb57d	0.6824568

l2.weight f4 [8, 8]
0	0xbf4168f7	-0.7555079
1	0x3f671d87	0.9027943
2	0x3f04514f	0.5168657
3	0xbe418a69	-0.18900456
4	0x3f8540b4	1.0410371
5	0x3f1d7fbc	0.6152303
6	0x3f700ca5	0.93769294
7	0x3f33b7c2	0.7020227
8	0xbeefdf14	-0.46849883
9	0xbf4099c0	-0.75234604
10	0x3f616ca0	0.88056374
11	0x3f914794	1.1349969
12	0x3f8d7f3b	1.1054453
13	0x3f8e25b5	1.1105257
14	0xbf1e4aad	-0.61832696
15	0x3f9da280	1.2315216
16	0x3ee5c924	0.4488002
17	0x3f5c3b06	0.8602756
18	0x3f4bdecd	0.7963684
19	0xbf96212a	-1.1728871
20	0x3d904c1c	0.07045767
21	0x3f271a8d	0.6527489
22	0x3ed12d41	0.40854838
23	0xbf11e024	-0.56982636
24	0x3ec67b0e	0.38765758
25	0x3f80e7ea	1.0070775
26	0x3e76502e	0.24054024
27	0xbf0e65ac	-0.5562389
28	0x3df9f3c9	0.122047015
29	0xbe40aa22	-0.188149
30	0x3fa719e7	1.305478
31	0xbebad2d5	-0.36488977
32	0x3f73a25c	0.95169616
33	0xbf8cc3a5	-1.0997206
34	0x3f444833	0.7667267
35	0x3f75e249	0.9604841
36	0xbf4f07ab	-0.80871075
37	0x3edca8c8	0.4309752
38	0x3f928682	1.1447299
39	0x3e673a05	0.22580726
40	0xbf1bc41c	-0.60846114
41	0x3f396345	0.724171
42	0x3f2e69ce	0.68130195
43	0xbd28e8b7	-0.04123756
44	0x3f7cad72	0.98702157
45	0x3e91e950	0.28498316
46	0x3f7ffc10	0.9999399
47	0x3f816ef3	1.0111984
48	0x3f7f06a3	0.996195
49	0x3f5943c0	0.84869003
50	0xbf905f48	-1.1279078
51	0xbf1043f8	-0.5635371
52	0x3dde22b6	0.10846464
53	0xbf825dfc	-1.0184932
54	0x3ed879ce	0.4228043
55	0xbde4a185	-0.1116362
56	0x3f9acbb4	1.2093415
57	0x3f76d168	0.9641328
58	0xbf1fdb6c	-0.62444186
59	0xbe383c4f	-0.17991756
60	0xbe8dbc33	-0.27682647
61	0xbf02c7cb	-0.5108611
62	0xbeefc3cd	-0.46829072
63	0x3e1e00f3	0.1543005

l2.bias f4 [8]
0	0x3e97d781	0.29656604
1	0x3ee58b53	0.44832858
2	0x3e8972a6	0.26845282
3	0x3f18c9ab	0.5968272
4	0x3e3d8c23	0.18510489
5	0x3e7a8ebd	0.24468513
6	0x3f18e1c7	0.5971951
7	0x3f2c9500	0.67414856

l3.weight f4 [6, 8]
0	0xbf5cfbce	-0.86321723
1	0xbf98089f	-1.1877631
2	0xbf257227	-0.6462731
3	0x3f0e5b4a	0.55608046
4	0x3f021062	0.5080625
5	0xbef776fa	-0.4833296
6	0x3e93ebfe	0.28890985
7	0x3e28fe18	0.16503179
8	0x3f18a4ce	0.5962647
9	0xbf5c54bf	-0.8606681
10	0xbe92c816	-0.28668278
11	0x3eb7cfc3	0.35900697
12	0xbf9d7695	-1.2301813
13	0x3f0fb161	0.56130034
14	0x3f10fc0c	0.56634593
15	0x3e79d45d	0.24397416
16	0x3f075b44	0.52873635
17	0xbe943c0a	-0.28952056
18	0x3f0174c2	0.50568783
19	0x3f14ccfc	0.5812528
20	0xbe7a58c1	-0.2444792
21	0x3f0161b2	0.50539696
22	0xbf91c61c	-1.1388583
23	0xbf9355ee	-1.1510599
24	0xbf52693e	-0.82191837
25	0xbf4aa05e	-0.7915095
26	0x3f060018	0.52343893
27	0x3ed0bdd5	0.4076983
28	0xbf76630b	-0.9624488
29	0xbf4ba538	-0.7954898
30	0x3f377e9c	0.71677566
31	0x3f2d2fa8	0.6765084
32	0x3f08299d	0.53188497
33	0x3f367b67	0.7128205
34	0xbf0c012c	-0.5468929
35	0xbf7aef1a	-0.9802109
36	0xbf4bdcb6	-0.79633653
37	0x3f11862f	0.5684537
38	0xbf10b331	-0.56523424
39	0xbf3dcbc6	-0.7413906
40	0xbf14f13f	-0.5818061
41	0x3e41dda1	0.18932201
42	0xbf5f6281	-0.8725968
43	0xbf27832c	-0.6543453
44	0x3f2168a7	0.6305031
45	0x3d58c6df	0.052924033
46	0xbf90eebc	-1.1322856
47	0x3e0fc286	0.14039049

l3.bias f4 [6]
0	0x3e98c9c3	0.29841432
1	0xbe8452f9	-0.25844553
2	0xbddc58ea	-0.107591465
3	0xbd7f78ab	-0.062370937
4	0xbde2da2b	-0.110767685
5	0x3ed3c466	0.41360778
